housing_nn.pt (torch, 14438 bytes, 5 tensors)

fc1.weight f4 [64, 12]
0	0x3db4ef41	0.088346966
1	0xbdecc5e4	-0.11561182
2	0xbe33712e	-0.17523643
3	0xbead5df6	-0.3386075
4	0xbea15834	-0.31512606
5	0xbb136b80	-0.0022494495
6	0xbdd9b049	-0.10629327
7	0x3e19837f	0.14991568
8	0xbe0b343e	-0.13594148
9	0x3e98ab76	0.29818314
10	0xbe24f204	-0.16107947
11	0x3cd5de91	0.026107104
12	0xbe7d8c82	-0.2476063
13	0xbe1c5d06	-0.1526986
14	0x3d854bf8	0.065086305
15	0x3e3815d7	0.17977081
16	0x3e5bed51	0.21477248
17	0xbe943767	-0.2894852
18	0xbc523c68	-0.012831785
19	0xbd26af64	-0.04069461
20	0x3e411160	0.18854284
21	0xbe2a5f07	-0.16637813
22	0x3e76ab79	0.24088849
23	0xbd43370a	-0.04765991
24	0xbd2fe0f7	-0.042939153
25	0x3db4557f	0.088053696
26	0xbe54ec88	-0.20793355
27	0xbbbfa358	-0.0058483295
28	0x3e89819d	0.268567
29	0xbe9285c8	-0.28617692
30	0xbe1c4a2e	-0.15262672
31	0x3e8ae630	0.27128744
32	0xbe2052b3	-0.15656547
33	0x3e8c6acd	0.27425233
34	0x3def149e	0.11673854
35	0x3dc5a451	0.096504815
36	0xbe576a42	-0.21036628
37	0x3d95c686	0.07313256
38	0x3df78ffe	0.12088011
39	0xbe56943b	-0.20954983
40	0xbe8aa80c	-0.27081335
41	0xbd9c86a6	-0.0764287
42	0xbca1138d	-0.019662643
43	0x3dbda5f2	0.09260167
44	0xbc966991	-0.018360885
45	0x3dd83594	0.10557094
46	0x3e692df9	0.22771443
47	0x3e0ec568	0.13942492
48	0xbe52d72c	-0.20589894
49	0xbce8d2e0	-0.028420866
50	0x3e268c40	0.16264439
51	0xbdb6088f	-0.08888351
52	0x3df89b19	0.121389575
53	0xbd4e29fb	-0.050333004
54	0x3da13503	0.07871439
55	0x3b03bfdb	0.0020103368
56	0xbbd460ea	-0.0064812796
57	0x3cb0b6d4	0.021571554
58	0x3dbe4366	0.09290199
59	0x3e3552a7	0.1770731
60	0xbe3e6d37	-0.1859635
61	0x3ea7771f	0.3270807
62	0xbe9e56ba	-0.30925542
63	0x3dde03fb	0.10840603
64	0x3e4b1d1e	0.19835326
65	0x3e1c9592	0.15291432
66	0xbe0a5c6a	-0.13511816
67	0x3e7a7a99	0.2446083
68	0xbdfc9818	-0.12333697
69	0x3e5b9a02	0.21445468
70	0xbdbce0ed	-0.09222589
71	0x3c8ba5c3	0.017046815
72	0x3e1f41ce	0.15552446
73	0xbe34df97	-0.17663418
74	0xbe83c090	-0.2573285
75	0x3e144c4e	0.14482233
76	0x3e821c62	0.2541228
77	0x3aa5172d	0.0012595408
78	0x3e1a4a5a	0.15067425
79	0xbd8a27a8	-0.06745845
80	0x3cd1b632	0.025599573
81	0xbe0010af	-0.12506364
82	0xbc1a64d5	-0.009423454
83	0x3c57d608	0.013173588
84	0xbe700430	-0.23439097
85	0xbe211130	-0.15729213
86	0x3e9893c4	0.29800236
87	0x3e05a843	0.13052468
88	0x3d8a3a83	0.067494415
89	0xbea4fdb4	-0.3222481
90	0x3e4ad453	0.19807558
91	0x3e1b329c	0.15156025
92	0xbe93812d	-0.2880949
93	0x3dc29ec6	0.0950294
94	0x3e36cb73	0.17851047
95	0x3e8f257d	0.2795829
96	0xbd7a75c3	-0.061147463
97	0x3d95e768	0.07319528
98	0xbdb5451f	-0.088510744
99	0x3e2bd205	0.16779335
100	0x3ea653e6	0.32485884
101	0xbe167a3d	-0.14695068
102	0x3e72bb9e	0.23704383
103	0x3dc23c94	0.094842106
104	0x3dc86ae8	0.09786016
105	0xbe735c22	-0.23765615
106	0x3e3172db	0.1732897
107	0xbe9282c0	-0.2861538
108	0xbbcb73bf	-0.0062088664
109	0xbe43b388	-0.19111454
110	0xbe9a1e8b	-0.30101427
111	0x3e1df79f	0.15426491
112	0xbd743785	-0.05962326
113	0xbe85be6f	-0.26121852
114	0x3e6c975e	0.23104617
115	0x3e28b412	0.16474941
116	0x3e1e15e6	0.15438041
117	0x3e5a852e	0.21339867
118	0xbe3b66fb	-0.18301003
119	0xbd501966	-0.05080547
120	0x3e49ff2a	0.19726244
121	0x3e9c58cf	0.30536506
122	0xbd092c03	-0.03348924
123	0xbe7132e9	-0.23554577
124	0x3de356c2	0.11100532
125	0xbe32b6c0	-0.17452526
126	0x3e7923cc	0.24330062
127	0x3e563c93	0.20921545
128	0x3dcf29ae	0.10115372
129	0x3e884de8	0.26621938
130	0xbe573f61	-0.21020271
131	0xbdd0c017	-0.10192888
132	0xbe56187b	-0.20907776
133	0x3e19078e	0.14944288
134	0x3e9605b9	0.2930124
135	0x3cc29c97	0.023756308
136	0xbe846d52	-0.25864655
137	0x3da8f7d7	0.08250397
138	0xbeab3452	-0.33438355
139	0xbe8b1aea	-0.2716897
140	0xbd6bd330	-0.05757445
141	0xbe82f178	-0.2557485
142	0x3d50db11	0.050990168
143	0xbd935b34	-0.0719513
144	0xbe9d69cb	-0.30744776
145	0x3e9d79d4	0.3075701
146	0x3e52a4f2	0.20570734
147	0x3de80061	0.11328197
148	0xbb0af198	-0.002120113
149	0xbe9ae2cb	-0.30251154
150	0xbe71c06a	-0.23608556
151	0xbde27cd2	-0.11058964
152	0x3ea13ef7	0.3149335
153	0xbe8b571d	-0.272149
154	0xbe239e54	-0.15978366
155	0x3e1738cf	0.14767765
156	0x3c258b75	0.01010405
157	0xbe987d26	-0.2978298
158	0x3e0e8f90	0.13921952
159	0x3d2d8cf0	0.042370737
160	0x3ea3edd4	0.32017386
161	0xbe039e07	-0.12853251
162	0x3e9adc25	0.30246082
163	0x3ea39f07	0.31957266
164	0xbe448851	-0.19192626
165	0xbeabb3e4	-0.33535683
166	0xbd9bcded	-0.076076366
167	0x3d7cda7a	0.061731793
168	0xbdacb8c6	-0.0843368
169	0x3ea6015b	0.3242291
170	0xbe930a91	-0.28719
171	0x3e25c481	0.16188242
172	0x3e82c8f0	0.25543928
173	0x3e8c88a2	0.27447993
174	0xbe425b54	-0.18980151
175	0xbeab369f	-0.3344011
176	0xbdb4e688	-0.08833033
177	0x3d75bcd3	0.05999453
178	0xbea29801	-0.31756595
179	0xbe03dc98	-0.12877119
180	0xbe45fdf1	-0.19335152
181	0xbb8f51fe	-0.004373788
182	0x3e0c698e	0.13712141
183	0x3e4fc80c	0.20291156
184	0x3e9db18d	0.30799523
185	0x3d958c6b	0.07302173
186	0x3c0f8acc	0.008761119
187	0xbdd0e98d	-0.10200796
188	0xbe9e4a5d	-0.3091611
189	0xbe4a4fd2	-0.19757012
190	0xbe0f5d77	-0.14000498
191	0xbe56ab20	-0.20963717
192	0x3e702f72	0.23455599
193	0xbe391cc1	-0.18077375
194	0x3e2678a0	0.16256952
195	0x3d0043e1	0.031314734
196	0x3da8d298	0.082432926
197	0x3d84167d	0.06449602
198	0xbe01093b	-0.12601177
199	0x3e168c55	0.1470197
200	0xbe65aade	-0.22428462
201	0x3e4c0b21	0.1992612
202	0xbde8e6cf	-0.11372148
203	0xbe885b52	-0.26632172
204	0x3dcb8958	0.099383056
205	0x3dd1def6	0.102476045
206	0xbe5d8ed3	-0.21636514
207	0xbe862e5b	-0.2620724
208	0xbe0f9f4b	-0.14025609
209	0x3e7655d0	0.24056172
210	0x3d174c36	0.036937915
211	0x3cf3ad06	0.02974559
212	0x3def58a1	0.116868265
213	0xbe766a09	-0.24063887
214	0x3e407f53	0.1879857
215	0x3e317281	0.17328836
216	0x3e78bb46	0.24290189
217	0xbe814f7b	-0.2525595
218	0xbdd58672	-0.10426034
219	0x3e62178d	0.22079296
220	0x3eaa6232	0.33278042
221	0x3e3bb526	0.18330821
222	0x3e8ee52d	0.27909222
223	0xbe6b0e59	-0.22954692
224	0xbd92fd34	-0.07177201
225	0x3d65b860	0.056084037
226	0xbc869a9b	-0.016431144
227	0xbe9ddae7	-0.30831072
228	0xbe741dce	-0.23839495
229	0xbe8bb329	-0.27285126
230	0xbe4917d9	-0.19638003
231	0x3d795460	0.060871482
232	0xbdd7988c	-0.10527143
233	0xbdfdd92c	-0.12394938
234	0x3de4a149	0.11163575
235	0xbdb496ac	-0.08817801
236	0x3d3ddbba	0.046352126
237	0x3e0ae2f2	0.13563135
238	0x3e035a86	0.128275
239	0xbe7aa811	-0.24478175
240	0xbe440bd8	-0.19145143
241	0xbdd52be3	-0.10408761
242	0xbe36823a	-0.17823115
243	0x3e9f6319	0.31130293
244	0x3ea78e78	0.32725883
245	0xb9c986c4	-0.00038438116
246	0xbccfb37c	-0.02535414
247	0xbea1440f	-0.31497237
248	0xbe49d01d	-0.19708295
249	0xbe27a160	-0.16370153
250	0x3de72e0a	0.11288078
251	0xbe60a6cf	-0.21938632
252	0xbd4f951c	-0.05067931
253	0xbe4817b9	-0.195403
254	0xbe4ec173	-0.20190983
255	0x3daf8118	0.085695446

fc1.bias f4 [64]
0	0x3e750c29	0.2393042
1	0x3ca336ec	0.01992365
2	0xbdb00f0d	-0.08596621
3	0xbb0f8b66	-0.0021903156
4	0xbdb206c6	-0.08692698
5	0xbb1bb260	-0.0023757443
6	0x3dce167e	0.10062884
7	0x3e146962	0.14493325
8	0xbe130d9c	-0.1436066
9	0x3e99fd89	0.30076244
10	0x3cee9dc6	0.029127967
11	0x3bd3dc64	0.0064654816
12	0xbddfdae6	-0.109304234
13	0x3e5fb289	0.2184545
14	0xbcb83911	-0.022488149
15	0x3ea519fc	0.32246387
16	0xbe2edc92	-0.17076328
17	0x3dbb6235	0.09149591
18	0x3db5c7e0	0.08876014
19	0xbe8ae3d0	-0.27126932
20	0xbe4172e1	-0.18891479
21	0x3e83147c	0.25601566
22	0xbe5882f8	-0.2114371
23	0xbe50a2b9	-0.20374574
24	0x3d802457	0.06256931
25	0x3d706f33	0.058699798
26	0x3ca6749a	0.020319272
27	0xbde7aaeb	-0.11311897
28	0x3ea2b786	0.31780642
29	0xbe517e36	-0.20458302
30	0x3deccbdb	0.1156232
31	0x3e0e4345	0.13892849
32	0xbe6e4fa0	-0.23272562
33	0x3d958849	0.07301385
34	0x3dc20a20	0.094745874
35	0xbe2d3495	-0.1691459
36	0x3e87d746	0.26531428
37	0x3e80e628	0.25175595
38	0xbd2916ea	-0.04128162
39	0x3e359f66	0.17736587
40	0x3e2ce055	0.16882451
41	0x3e967761	0.29387954
42	0x3c477db7	0.012175969
43	0xbe5dd9a0	-0.21665049
44	0xbdd9309d	-0.106049754
45	0xbe1eb4f8	-0.15498722
46	0x3bcc9b26	0.006244081
47	0xbe0bb00d	-0.13641377
48	0x3e35e698	0.17763746
49	0xbe622d9e	-0.22087714
50	0x3e170a8e	0.1475012
51	0x3e4afa96	0.19822153
52	0xbe19fd9f	-0.15038155
53	0xbc495737	-0.01228886
54	0x3e86e4f5	0.26346555
55	0x3ce207e4	0.027591653
56	0x3e15354b	0.14571111
57	0x3e0d8552	0.13820389
58	0x3d228a71	0.03968281
59	0x3e66b04b	0.22528188
60	0xbe2f86ba	-0.17141238
61	0x3e9d6eb7	0.3074853
62	0xbdd49b7a	-0.10381217
63	0xbd164946	-0.036690973

fc2.weight f4 [32, 64]
0	0xbded117c	-0.115756005
1	0xbe11de40	-0.14244938
2	0xbc8e6b3a	-0.017385114
3	0xbd9b9f5a	-0.07598753
4	0x3bb09ffc	0.0053901654
5	0xbda419d4	-0.08012739
6	0x39d48afd	0.00040539345
7	0x3dafb70b	0.085798346
8	0x3d92fd6b	0.07177242
9	0x3b9e0369	0.004822184
10	0x3c1ad26f	0.009449585
11	0x3d014d85	0.03156807
12	0xbe118ebe	-0.14214608
13	0x3daa5096	0.08316152
14	0x3cb0aff2	0.021568272
15	0xbba7f0b8	-0.0051251315
16	0xbd398929	-0.04529682
17	0xbda11b40	-0.07866526
18	0xbd868884	-0.06569007
19	0xbdf91598	-0.12162322
20	0xbe0998de	-0.1343722
21	0xbd99c6ec	-0.075086445
22	0xbe0c3c10	-0.13694787
23	0x3b54a79a	0.003244853
24	0x3d6fd767	0.058555033
25	0xbdda8757	-0.10670345
26	0x3db9e20b	0.090763174
27	0xbe102671	-0.14077164
28	0xbdcfeedc	-0.10152981
29	0xbde42e8d	-0.11141691
30	0xbc29225d	-0.010323134
31	0x3d36db59	0.04464278
32	0xbda4b83b	-0.08042952
33	0x3cb3c3c0	0.021943927
34	0x3d98ff93	0.07470622
35	0xbdf6f095	-0.12057606
36	0x3d77923f	0.060442206
37	0xbdc1d0aa	-0.09463628
38	0x3da99f9c	0.08282396
39	0xbdc6fce6	-0.09716205
40	0xbdf1484a	-0.11781366
41	0xbd42c7e1	-0.0475539
42	0xbde427d1	-0.11140407
43	0xbda359b8	-0.07976097
44	0xbd82d5ab	-0.0638841
45	0xbc055e27	-0.008140123
46	0x3d9efaa3	0.07762649
47	0xbd9e3aff	-0.07726096
48	0xbdddc1a3	-0.10827949
49	0x3d5ba4aa	0.053623833
50	0xbd9b33ba	-0.075782254
51	0x3d9e44cd	0.077279665
52	0xbd99337c	-0.07480523
53	0x3bab406e	0.0052261865
54	0x3c1d012f	0.009582802
55	0xbd9fc4cc	-0.07801208
56	0xbd4da750	-0.05020839
57	0xbd6e60af	-0.058197673
58	0x3d212e37	0.039350715
59	0xbdc39455	-0.095497765
60	0x3c5a5864	0.013326738
61	0xbd203249	-0.039110456
62	0xbdd7c841	-0.10536242
63	0xbe0024d5	-0.1251405
64	0x3d7b3510	0.0613299
65	0x3d8360c2	0.064149395
66	0x3e1dc1e5	0.15405996
67	0xbd6b30ea	-0.057419695
68	0xbc43f8b8	-0.011961155
69	0x3dd732ac	0.10507712
70	0xbd0fafb1	-0.03507966
71	0x3da8df7f	0.082457535
72	0x3e301b98	0.17198026
73	0xbd29d9ae	-0.04146736
74	0xbc0808d4	-0.008302886
75	0xbd337b8f	-0.043819007
76	0xbd816300	-0.06317711
77	0xbd236f8d	-0.039901305
78	0xbd67ba2f	-0.056574043
79	0xbd831dd9	-0.06402177
80	0x3e01367c	0.1261844
81	0x3e0ef189	0.13959326
82	0x3e1ae8b5	0.15127833
83	0x3de0782b	0.1096042
84	0x3dbaf385	0.09128479
85	0x3e1d49fa	0.15360251
86	0x3d946171	0.07245148
87	0xbd2cb04a	-0.04216031
88	0x3e202ddc	0.15642494
89	0x3d855e23	0.06512096
90	0xbd80d228	-0.06290084
91	0x3d4dc0d7	0.050232735
92	0x3db7c4ca	0.089730814
93	0x3d03f30a	0.032214202
94	0x3e007168	0.12543261
95	0x3da4eb36	0.080526754
96	0x3d7f3759	0.062308643
97	0x3d7e99e0	0.062158465
98	0x3e1bdeae	0.15221664
99	0xbd6d3f42	-0.057921655
100	0x3d4f3b12	0.050593443
101	0xbd1ded7b	-0.038556557
102	0xbd0948ac	-0.03351657
103	0xbd190012	-0.037353583
104	0xbc82c842	-0.015964631
105	0x3d9c4814	0.07630935
106	0x3d8032be	0.06259678
107	0x3d1b22d8	0.037875026
108	0x3d3b47fd	0.04572295
109	0x3e0d467d	0.1379642
110	0x3d2d4315	0.042300303
111	0x3daee1ca	0.085391596
112	0x3d80ac3a	0.062828496
113	0x3df5e5f7	0.12006753
114	0x3d772a7c	0.06034325
115	0x3d676454	0.056492165
116	0xbd5e333c	-0.05424808
117	0xbc27fbd3	-0.010252911
118	0x3b0cd69a	0.0021490217
119	0x3e13cc80	0.1443348
120	0x3db35299	0.08755989
121	0x3e1b0a03	0.15140538
122	0xbaa4871c	-0.0012552473
123	0x3d63f16b	0.055650156
124	0x3e1049f0	0.14090705
125	0x3cabf383	0.020990139
126	0x3dba9272	0.091099635
127	0x3e050117	0.12988697
128	0x3b2ba870	0.0026192926
129	0x3e2a7fe7	0.16650353
130	0x3dad2b52	0.08455528
131	0x3b57f7be	0.0032954062
132	0xbd5d26ca	-0.05399207
133	0x3ac17b75	0.0014761525
134	0xbc999e28	-0.018752173
135	0x3cd8986b	0.026439866
136	0xbc8c892a	-0.017155249
137	0x3d7e6b8d	0.062114287
138	0xbbfa869c	-0.007645441
139	0x3e166610	0.14687371
140	0x3e2cc484	0.1687184
141	0x3d88da3e	0.066822514
142	0x3d783afc	0.060603127
143	0xbc6631ac	-0.014049929
144	0xbcb314c1	-0.021860482
145	0x3e33188d	0.17489834
146	0x3def2a0e	0.11677943
147	0x3e295344	0.1653567
148	0x3e030404	0.127945
149	0x3de05bf4	0.10955039
150	0xbd0f6ddc	-0.03501688
151	0x3e22bb28	0.15891707
152	0x3db748a3	0.08949401
153	0x3e00cd1b	0.12578242
154	0x3e238f40	0.15972614
155	0xbc89972d	-0.016795719
156	0x3dc09348	0.09403092
157	0xbcc913ad	-0.024545515
158	0x3dc5dc01	0.09661103
159	0x3e06e131	0.13171841
160	0x3d6f7c8e	0.058468394
161	0xbd342065	-0.043976206
162	0x3b2d6a7a	0.002646117
163	0x3d42c487	0.047550704
164	0x3e2cf5db	0.16890661
165	0x3d2a9adb	0.041651588
166	0x3dc94b7e	0.09828852
167	0xbd09dd85	-0.033658523
168	0x3e065562	0.13118508
169	0x3cf83994	0.030300893
170	0x3e1b3b35	0.15159304
171	0x3e2d27cd	0.16909714
172	0x3d87b85c	0.06626961
173	0x3c78cca6	0.015185511
174	0x3d922c10	0.071373105
175	0xbbc98cc6	-0.0061508147
176	0x3db2ea80	0.087361336
177	0x3e004dce	0.1252968
178	0x3c2e436d	0.010636193
179	0xbd390132	-0.045167156
180	0x3e19f007	0.1503297
181	0xbd800375	-0.062506594
182	0xbd82eda4	-0.063929826
183	0x3e1c6012	0.15271023
184	0x3dd7a18b	0.10528859
185	0xb94af370	-0.00019354909
186	0xbd8421fd	-0.06451795
187	0x3d6e4601	0.05817223
188	0x3dcfc982	0.101458564
189	0x3dee374d	0.116316415
190	0x3d869cb3	0.06572857
191	0xbd287fa3	-0.04113735
192	0xbd70f7f7	-0.058830228
193	0x3d11e271	0.035616342
194	0xbc27a31f	-0.010231762
195	0x3d8ee45c	0.0697715
196	0x3d45b244	0.04826571
197	0x3d284802	0.041084297
198	0x3d83aa0a	0.06428917
199	0x3d9dcc68	0.07705003
200	0x3e0b75d5	0.13619168
201	0x3deeed2e	0.11666332
202	0xbcb80a5b	-0.022465875
203	0xbd6c58af	-0.057701763
204	0x3e23b2ad	0.15986128
205	0x3dc68b91	0.09694589
206	0x3c16da18	0.009207271
207	0x3dc68425	0.09693173
208	0x3d07c6e2	0.033148654
209	0xbb936e1b	-0.0044992096
210	0x3e03aa1a	0.12857857
211	0xbcc915e1	-0.024546565
212	0x3e32db92	0.17466572
213	0x3deb7ec6	0.114987895
214	0x3ca57905	0.020199308
215	0xbc3c555a	-0.011494959
216	0xbcc2f122	-0.023796622
217	0x3c799fce	0.015235854
218	0x3e38099d	0.17972417
219	0x3e1cfdfd	0.15331264
220	0x3dd09591	0.101847775
221	0x3df85eae	0.12127434
222	0x3ced1ca7	0.028944327
223	0x3d96e686	0.073681876
224	0x3d6dacdb	0.058026176
225	0x3d3b230e	0.045687728
226	0x3e0eed96	0.1395782
227	0x3d173411	0.03691489
228	0x3e321a59	0.17392863
229	0x3df8cd2e	0.1214851
230	0x3e23ae7c	0.1598453
231	0xbceca032	-0.02888498
232	0x3d9fd701	0.078046806
233	0xbcb5304a	-0.022117753
234	0xbcd9b7c5	-0.026576886
235	0x3e17caf4	0.14823514
236	0x3d8ac837	0.06776469
237	0xbd4a719f	-0.049424764
238	0x3d23716a	0.039903082
239	0xbc8fc5d7	-0.017550392
240	0xbc85a6a0	-0.016314805
241	0x3ddb2bf2	0.10701741
242	0x3db34fc2	0.08755447
243	0x3cf755a5	0.030192206
244	0x3d783982	0.06060172
245	0x3cbd5d73	0.02311585
246	0x3d369be8	0.044582278
247	0x3ba36357	0.0049862075
248	0x3e29825e	0.16553637
249	0x3e2525c0	0.16127682
250	0xbcea6444	-0.028612264
251	0x3d8aaf8a	0.06771763
252	0x3dd97bb0	0.10619295
253	0x3d6e1013	0.0581208
254	0x3e1a2db3	0.15056495
255	0x3e0e1573	0.1387537

fc2.bias f4 [32]
0	0x3d668b03	0.056284916
1	0x3d9e4efd	0.077299096
2	0x3e1a1f16	0.15050921
3	0x3b27ce83	0.0025605268
4	0xbca3d7b4	-0.020000316
5	0x3d235431	0.039875213
6	0x3c40016a	0.011719087
7	0x3e1b6e86	0.1517888
8	0xbdfd4d44	-0.12368253
9	0x3d588965	0.052865405
10	0xbd3ddaae	-0.046351127
11	0x3dca4d73	0.098780535
12	0x3dc1a412	0.09455122
13	0xbdabe53c	-0.08393332
14	0x3df1e2fb	0.11810871
15	0x3dbec9c1	0.09315825
16	0x3bfa2bb7	0.0076346057
17	0x3e1871ad	0.14887114
18	0xbdf33630	-0.1187557
19	0xbae55a78	-0.0017498275
20	0xbd69d2af	-0.05708569
21	0xbcb0f663	-0.021601861
22	0x3d8c67da	0.068557456
23	0xbd81cf39	-0.06338353
24	0x3d30f9f3	0.04320712
25	0x3b0dbec9	0.002162861
26	0xbdd7e879	-0.105423875
27	0x3a46bb72	0.0007581032
28	0x3c93ea76	0.018056136
29	0xbc0cc750	-0.008592442
30	0xbba131db	-0.0049192733
31	0x3e340d1a	0.17583123

out.weight f4 [1, 32]
0	0xbdbeadf8	-0.09310526
1	0x3e2f995e	0.17148349
2	0x3dba8447	0.09107261
3	0x3e3cb761	0.18429329
4	0x3d9a3f57	0.07531612
5	0x3e686baf	0.22697328
6	0xbe008056	-0.12548956
7	0x3e24f699	0.16109695
8	0xbe2197dc	-0.15780586
9	0x3e35bf6f	0.17748807
10	0x3ddad8ca	0.106858805
11	0xbdd5c318	-0.10437602
12	0xbd775b1d	-0.060389627
13	0xbe02cada	-0.12772694
14	0x3e569f66	0.20959243
15	0xbde1558a	-0.110026434
16	0xbda840f4	-0.08215514
17	0x3e417106	0.18890771
18	0xbde4e0bc	-0.11175677
19	0x3dcc17f6	0.09965508
20	0x3b8bd3b3	0.00426718
21	0xbe184f38	-0.1487397
22	0xbe09610d	-0.13415928
23	0xbe1cfba0	-0.15330362
24	0x3d8eb9c3	0.06969025
25	0x3ba83bff	0.005134105
26	0x3c03fa5d	0.008055297
27	0x3da68776	0.08131306
28	0xbdd74f84	-0.10513213
29	0xbdafd6ef	-0.08585917
30	0xbca00564	-0.01953382
31	0x3db90732	0.090345755
